Trained_model.pth (torch_old, 424870 bytes, 8 tensors)

conv1.weight f4 [16, 1, 3, 3]
0	0xbca3bde9	-0.019988017
1	0x3ea297d4	0.3175646
2	0xbe86e695	-0.26347795
3	0x3ec3c5e0	0.38236904
4	0xbe59e94b	-0.212804
5	0x3db089dd	0.08620045
6	0x3e9c9a6e	0.3058657
7	0xbe850e02	-0.2598725
8	0xbe304981	-0.1721554
9	0xbe57adf6	-0.21062455
10	0x3e4c3a3d	0.19944091
11	0x3da6d1b5	0.08145467
12	0xbe89102b	-0.26770148
13	0xbd209b93	-0.039210867
14	0xbe62b712	-0.22140148
15	0x3e177d2f	0.14793848
16	0xbb1f29c9	-0.002428638
17	0xbe26bf35	-0.16283877
18	0xbee54b51	-0.44784024
19	0x3e98293c	0.2971896
20	0x39813847	0.00024646727
21	0xbdadef04	-0.08492854
22	0x3ef17042	0.47155958
23	0x3ead21e5	0.33814922
24	0x3f1f8e26	0.62326276
25	0x3f4217ae	0.7581738
26	0x3f0d4630	0.5518522
27	0x3eb0b788	0.34515023
28	0x3e242f55	0.1603368
29	0x3ed77508	0.42081475
30	0xbd694dbf	-0.05695891
31	0xbde7f39d	-0.113257624
32	0x3f11e107	0.5698399
33	0xbeda5c01	-0.42648318
34	0x3dafd21d	0.08584998
35	0x3c149342	0.009068312
36	0xbd0d15d8	-0.03444466
37	0x3db05660	0.08610225
38	0xbe2df84e	-0.16989252
39	0xbe3576c8	-0.17721093
40	0xbdc5f43c	-0.09665725
41	0x3da18740	0.07887125
42	0xbc4d4d60	-0.012530655
43	0xbe8008e8	-0.25006795
44	0x3e0fb4f8	0.14033878
45	0xbd43c87f	-0.04779863
46	0x3e1116cd	0.14168854
47	0xbe803b78	-0.2504537
48	0x397e7b47	0.00024269252
49	0xbe41e8bd	-0.18936439
50	0x3dd54dce	0.10415231
51	0x3eb4c9eb	0.353103
52	0xbea4465c	-0.3208493
53	0xbe80577b	-0.25066742
54	0x3e9463f4	0.28982508
55	0x3e149134	0.14508516
56	0xbee5a9b4	-0.44856036
57	0x3f0218a9	0.5081888
58	0x3e0bfcd0	0.13670659
59	0xbe8e4a68	-0.27791142
60	0x3d8a901f	0.0676577
61	0x3dedd559	0.116129585
62	0x3e4e40b7	0.20141874
63	0x3df64118	0.120241344
64	0xbd75e03f	-0.06002831
65	0xbe8d4a32	-0.2759567
66	0x3e440077	0.19140802
67	0xbdcd3b2d	-0.100210525
68	0xbe1f4e77	-0.15557276
69	0x3d67c1cf	0.056581315
70	0xbdd243e4	-0.10266855
71	0xbdc72f6d	-0.097258426
72	0xbdb43910	-0.08799946
73	0xbe806793	-0.2507902
74	0xbe83ab48	-0.25716615
75	0x3e23ebda	0.16007939
76	0xbe53e51b	-0.20692866
77	0x39a1c000	0.00030851364
78	0xbe088133	-0.13330536
79	0x3d84961c	0.064739436
80	0xbd915370	-0.070959926
81	0xbdf4d136	-0.11953966
82	0xbe3f1abb	-0.1866254
83	0xbd96a3c4	-0.073554546
84	0xbe83fab4	-0.2577721
85	0xbe9bcc08	-0.304291
86	0xbea4b0e6	-0.32166213
87	0xbd3ec7e0	-0.046577334
88	0xbe8f944e	-0.28042835
89	0xbe9156f2	-0.28386647
90	0x3e435182	0.19074062
91	0x3ef46b30	0.47738028
92	0x3f0d5cc5	0.5521968
93	0x3e9dc2c2	0.3081265
94	0x3eb4ec2b	0.35336432
95	0x3d8cd669	0.06876833
96	0x3ea900f9	0.33008555
97	0x3e46cc24	0.19413811
98	0xbe7507b6	-0.23928723
99	0x3ef8fc37	0.48629925
100	0x3f4e8281	0.80667883
101	0x3f187d86	0.59566534
102	0x3ebeab7e	0.37240213
103	0x3f0e6491	0.556222
104	0x3e834ddb	0.25645337
105	0xbe9a6b93	-0.30160198
106	0xbe6bbf89	-0.23022284
107	0x3dba30b3	0.0909132
108	0xbec87026	-0.39148062
109	0xbe2b6dd7	-0.1674112
110	0xbee317d6	-0.44354123
111	0xbdf5ade4	-0.11996058
112	0xbee98b2b	-0.4561399
113	0xbc8e2dbb	-0.01735579
114	0x3d13d54e	0.036092095
115	0x3ee45d4f	0.4460244
116	0x3eec2ccb	0.46127924
117	0xbe069724	-0.13143593
118	0x3ea9f2a2	0.33192927
119	0x3f15d526	0.58528364
120	0x3f31b2a6	0.6941322
121	0x3f3a1202	0.7268373
122	0x3e955e10	0.29173326
123	0x3e9b91f3	0.30384788
124	0x3dca3843	0.09874012
125	0x3f136f85	0.5759204
126	0x3f285582	0.65755475
127	0x3f183f70	0.594718
128	0xbe9082b5	-0.28224722
129	0x3f8a87ce	1.0822694
130	0x3f655efd	0.89598066
131	0x3f536a8e	0.82584465
132	0x3e9ccdc9	0.30625752
133	0x3f53714d	0.8259476
134	0x3eaea932	0.3411346
135	0xbeb829a6	-0.35969275
136	0x3e87beab	0.26512656
137	0xbeaf6361	-0.34255508
138	0x3e86c3a1	0.26321128
139	0x3e21bc4a	0.15794483
140	0xbe68c675	-0.22731955
141	0xbdcd4232	-0.100223914
142	0x3e2dd9ec	0.16977662
143	0x3e2aa652	0.16665009

conv1.bias f4 [16]
0	0xbdf815e1	-0.12113548
1	0xbe0f86c3	-0.14016251
2	0xbb9a61f3	-0.0047113835
3	0xbc3deda4	-0.0115923025
4	0xbe732053	-0.237428
5	0x3e85af36	0.26110238
6	0x3eb33dca	0.3500808
7	0xbe9df11e	-0.3084802
8	0xbea483eb	-0.32131895
9	0xbd85f4ac	-0.06540808
10	0x3931e3d0	0.00016964902
11	0x3b16adc5	0.0022991758
12	0x3f2798ab	0.6546733
13	0xbca55045	-0.020179877
14	0xbcd25b59	-0.025678324
15	0x3e9933eb	0.29922423

conv2.weight f4 [32, 16, 3, 3]
0	0x3b83df12	0.004024395
1	0xbd750450	-0.059818566
2	0x3b7eb17c	0.0038863113
3	0x3d19bb46	0.037532113
4	0xbd7992fd	-0.060931195
5	0x3d06b66c	0.032888815
6	0xbc924020	-0.017852843
7	0xbd96476f	-0.073378436
8	0x3c1a3d20	0.009413987
9	0x3da718fe	0.08159064
10	0xbd5ce32f	-0.053927597
11	0x3c96256f	0.018328397
12	0xbc8e9917	-0.017406983
13	0xbd8ef289	-0.06979854
14	0xbcc5e972	-0.024159167
15	0x3c008e1d	0.007846382
16	0xbd8fab4a	-0.07015093
17	0xbd9d0016	-0.07666032
18	0x3d802567	0.06257134
19	0xbd82c611	-0.063854344
20	0x3d73c14f	0.059510525
21	0x3e2b1add	0.16709466
22	0xbe039220	-0.12848711
23	0x3c8e80f7	0.01739548
24	0xbd677c38	-0.05651495
25	0xbe0f1959	-0.13974513
26	0x3df89a0e	0.121387586
27	0xbd541680	-0.05177927
28	0xbde2d686	-0.11076073
29	0x3ce89713	0.02839235
30	0xbda8a37d	-0.08234308
31	0xbdf68b1e	-0.12038253
32	0x3da47b12	0.08031286
33	0xbd09eebb	-0.033674937
34	0xbdbf1fc9	-0.093322344
35	0x3df96f5e	0.12179445
36	0x3b939c30	0.004504703
37	0xbda1e13f	-0.079042904
38	0x3d8918bf	0.06694173
39	0xbcab5b9c	-0.020917706
40	0x3d4607fa	0.04834745
41	0xbbb73770	-0.0055913255
42	0x3bcb4900	0.0062037706
43	0xbd305ec0	-0.04305911
44	0x3cb3abd0	0.021932513
45	0x3d740db6	0.05958339
46	0x3d145285	0.03621151
47	0xbd7fe92b	-0.062478226
48	0x3d925508	0.07145125
49	0xbcc7da14	-0.02439598
50	0xbd9d503d	-0.0768132
51	0x3d96853d	0.07349632
52	0xb9b0afe4	-0.00033700385
53	0x3ce6a98c	0.028157018
54	0x3d90740b	0.070533834
55	0x3c8b5d3d	0.017012233
56	0x3d3a9051	0.045547787
57	0x3bf97af0	0.0076135322
58	0xbcd58529	-0.026064472
59	0xbdc51931	-0.096239455
60	0x3e09234d	0.13392372
61	0x3b32aa4e	0.0027262154
62	0x3bc07bdc	0.00587414
63	0xbd5b3eca	-0.053526677
64	0x3b7da5e5	0.0038703617
65	0xbd6906b5	-0.056891162
66	0xbcdc5741	-0.026897075
67	0xbd8bd241	-0.06827212
68	0x3da3a5f6	0.07990639
69	0x3d2fb0ca	0.04289321
70	0x3d83572b	0.0641311
71	0x3da71603	0.08158495
72	0xbdaa049e	-0.08301662
73	0x3d6a71da	0.057237484
74	0x3da80b35	0.082052626
75	0x3c5103b8	0.012757234
76	0xbd88a5fc	-0.06672284
77	0xbd407ec6	-0.0469959
78	0xbceaee2c	-0.028678022
79	0x3cdce4f4	0.026964642
80	0x3d14f8e6	0.03637018
81	0x3bbe7810	0.0058126524
82	0x3d75efb2	0.060043044
83	0x3d456672	0.048193403
84	0xb9fb5300	-0.0004793629
85	0xbd1ac4ae	-0.037785225
86	0xbd8bdb22	-0.06828906
87	0xbd875222	-0.066074625
88	0x3da1288b	0.07869061
89	0xbd47a046	-0.048736833
90	0x3d36fb1d	0.044673074
91	0x3cb3774c	0.021907471
92	0xbdc9eebc	-0.09859988
93	0x3df4bce2	0.11950089
94	0xbe0fae03	-0.14031224
95	0xbd79e975	-0.061013658
96	0x3ce1da9b	0.02757006
97	0xbdb68fa1	-0.08914114
98	0x3dad636c	0.08466229
99	0x3d5c34e5	0.05376138
100	0xbde2a292	-0.11066164
101	0xbd8acdf3	-0.06777563
102	0x3d925ab2	0.07146205
103	0xbd9ad155	-0.07559458
104	0x3c91481b	0.017734578
105	0x3d1c48a0	0.038155198
106	0xbe034c90	-0.12822175
107	0x3e05af55	0.13055165
108	0x3d30e1ac	0.043183967
109	0xbd6e98a2	-0.05825103
110	0x3d23e947	0.040017392
111	0xbe06320c	-0.13105029
112	0xbd6dbd2d	-0.05804174
113	0xbcb7d81c	-0.022441916
114	0xbc54a039	-0.012977653
115	0xbd861db5	-0.06548635
116	0xbbc74b8b	-0.0060820035
117	0x3c5ee612	0.013604658
118	0xbe07577e	-0.1321697
119	0xbdbb4fc1	-0.09146071
120	0x3d36b784	0.044608608
121	0xbe0aac0c	-0.13542193
122	0xbcb84a8a	-0.02249648
123	0x3c42ba1d	0.011885193
124	0xbe37ba08	-0.17942059
125	0x3de02dce	0.109462366
126	0x3e4df182	0.20111659
127	0xbd2f13d8	-0.042743534
128	0xbe00c136	-0.12573704
129	0x3e3b2fbe	0.18279931
130	0xbe150fe5	-0.14556845
131	0x3cbcd203	0.02304936
132	0x3dd796cd	0.1052681
133	0xbe566bc9	-0.20939554
134	0x3e1f8244	0.15577036
135	0xbd537c81	-0.051632408
136	0x3ced56fe	0.028972145
137	0xbd6d2b28	-0.057902485
138	0x3cfd6d7d	0.030935997
139	0x3a988a36	0.001163787
140	0x3cc56e61	0.024100484
141	0x397c2f35	0.00024050179
142	0x3d309eab	0.043120068
143	0xbd4878d0	-0.04894334
144	0xbd8b8306	-0.068121
145	0xbd1d5be0	-0.038417697
146	0x3ca99138	0.020699129
147	0x3d90c7db	0.070693694
148	0xbd957ae6	-0.07298832
149	0xbca81d44	-0.020521767
150	0xbd36a4aa	-0.04459063
151	0xbda75341	-0.08170176
152	0x3d976e14	0.073940426
153	0x3cba5b2e	0.022748556
154	0x3d9c3a0c	0.07628259
155	0xbcc26d8a	-0.023733873
156	0xbd4fdcb0	-0.050747573
157	0x3cfd7134	0.030937769
158	0x3da814e6	0.08207111
159	0x3c5f1ab0	0.013617203
160	0x3d99d88d	0.07512007
161	0xbd3902e2	-0.045168765
162	0x3d500f27	0.0507957
163	0xbdc28f8f	-0.09500038
164	0x3cc817d1	0.024425419
165	0xbd74f1df	-0.05980098
166	0xbd3893e9	-0.045062933
167	0x3dfbfbfc	0.123039216
168	0xbe0cea2a	-0.13761202
169	0x3cafc82f	0.02145776
170	0x3db4e3f2	0.088325396
171	0x3d9e918e	0.07742606
172	0xbd52eeba	-0.0514972
173	0xbd9de9aa	-0.077105835
174	0xbcd5865a	-0.02606504
175	0x3b4b63a1	0.0031034725
176	0xbbc23d29	-0.005927701
177	0x3c94a70b	0.018146059
178	0xbd5864c5	-0.052830476
179	0x3d401e24	0.046903744
180	0x3d6455b2	0.055745788
181	0xbb71bca0	-0.003688611
182	0x3c76a658	0.015054308
183	0x3d7498ca	0.059716024
184	0xbc56a848	-0.013101645
185	0x3d491d1a	0.04910002
186	0xbd874b04	-0.06606105
187	0xbcb21cc0	-0.021742225
188	0x3c946dbc	0.018118732
189	0xbd5353c7	-0.05159357
190	0x3c861bf3	0.01637075
191	0x3d175537	0.0369465
192	0xbcd3a852	-0.025837097
193	0x3d8376f7	0.06419175
194	0xbd9f112d	-0.07766948
195	0x3d976372	0.073920146
196	0xbd945f50	-0.07244742
197	0xbd579571	-0.052632753
198	0x3d47ddfc	0.048795685
199	0x3d2d6f4c	0.04234247
200	0x3d126efd	0.035750378
201	0xbd726369	-0.059176836
202	0x3d213462	0.039356597
203	0xbd8aa17e	-0.067690834
204	0xbd97dfa5	-0.07415704
205	0x3bb2d5db	0.0054576225
206	0x3d4fe3d6	0.05075439
207	0xbd8e0084	-0.06933692
208	0xbda87ae1	-0.08226562
209	0xbd3d388f	-0.046196517
210	0x3d13377c	0.035941586
211	0xbd0f2176	-0.03494402
212	0x3d93ea26	0.07222395
213	0xbd55876e	-0.05213111
214	0x3d5c0749	0.053717885
215	0x3cc0ca5a	0.023533989
216	0xbd103c0b	-0.03521351
217	0xbc96b9b4	-0.018399097
218	0xbd1b2e9b	-0.037886243
219	0xbd483530	-0.04887885
220	0x3d7b079e	0.06128656
221	0xbd329008	-0.04359439
222	0x3d1c3c3e	0.03814339
223	0xbda2b9e3	-0.07945611
224	0xbccd48cc	-0.025059126
225	0x3cfff570	0.031244963
226	0xbc45ff60	-0.012084812
227	0x3d87bc19	0.06627674
228	0xbc4396a0	-0.011937767
229	0x3c9389fc	0.018010132
230	0x3c450858	0.012025915
231	0xbdaaa64e	-0.08332501
232	0xbbfff780	-0.0078114867
233	0xbd716aee	-0.058939867
234	0x3d1dda26	0.03853812
235	0x3d37be8c	0.044859454
236	0xbd98bb89	-0.074576445
237	0xbd5ac796	-0.053412996
238	0xbe0512e1	-0.12995483
239	0x3da70000	0.08154297
240	0xbdd73b0f	-0.105093114
241	0xbcad1d88	-0.021132246
242	0x3e161d97	0.14659725
243	0x3c8354dd	0.016031677
244	0x3d2b5e20	0.04183781
245	0xbdf47f2e	-0.1193832
246	0x3bcdc3fb	0.006279466
247	0xbdd55971	-0.1041745
248	0xbd5e4f53	-0.05427487
249	0xbd4a6b62	-0.049418814
250	0x3d216324	0.03940119
251	0xbc2387a4	-0.00998107
252	0x3c893bbe	0.01675212
253	0xbd84cdcf	-0.064845674
254	0x3dd2677e	0.10273646
255	0xbd57a6f3	-0.05264945

conv2.bias f4 [32]
0	0xbaa571d7	-0.0012622428
1	0xbcf7bcaf	-0.030241339
2	0xbdff4b58	-0.124655426
3	0xbdcd92d4	-0.10037771
4	0xbd49ca45	-0.049265165
5	0xbe4286c0	-0.18996716
6	0xbc31393f	-0.010816871
7	0x3d4db50e	0.050221495
8	0xbda81736	-0.08207552
9	0xbe378a3a	-0.17923823
10	0x3c19f1a9	0.009395995
11	0xbe38ea5b	-0.1805815
12	0xbddedb4f	-0.108816735
13	0xbc1ef5f1	-0.009702192
14	0xbbda7769	-0.006667067
15	0xbdba3ed7	-0.09094017
16	0x3ce116bd	0.027476663
17	0xbd62985e	-0.05532109
18	0xbd3ac9b1	-0.045602504
19	0xbcdd4124	-0.0270086
20	0xbdade230	-0.084904075
21	0xbe74cc77	-0.23906122
22	0xbdcda31e	-0.10040878
23	0xbda5a9e5	-0.080890454
24	0xbca0bcac	-0.019621216
25	0xba03fa11	-0.0005034516
26	0x3c5070f6	0.0127222445
27	0xbde5f91f	-0.11229157
28	0xbe36528c	-0.17804927
29	0xbd5b191d	-0.053490747
30	0xbe15df30	-0.1463592
31	0xbdba2ebf	-0.09090947

fc1.weight f4 [64, 1568]
0	0x3c6a4553	0.014298755
1	0x3c828bce	0.015935805
2	0x3c8b6088	0.017013803
3	0xbbec2536	-0.0072065843
4	0x3a7df20a	0.0009687251
5	0xbc413790	-0.011793032
6	0x3c39c910	0.011339441
7	0xbc6e914b	-0.014561008
8	0x3c9704cf	0.01843491
9	0x3bc2cf3d	0.005945115
10	0xba3dfe64	-0.0007247685
11	0x3b66f79f	0.0035242809
12	0x3c35bba2	0.011092098
13	0xbc2095a2	-0.0098013
14	0xbb800039	-0.0039062765
15	0x3a1d6404	0.0006003978
16	0xbbac912f	-0.0052663307
17	0x3d191e71	0.037382547
18	0xbca4053e	-0.02002203
19	0x3c3214e6	0.01086924
20	0x3bbe963e	0.00581625
21	0x3c93afc3	0.018028146
22	0xbafaf48c	-0.0019146367
23	0xbcff15d9	-0.031138347
24	0xbc1132c8	-0.008862205
25	0x3ccd870f	0.025088815
26	0x3d2f32ef	0.042773183
27	0xbc829120	-0.015938342
28	0xbcc468d3	-0.023975765
29	0xbbf7ad3e	-0.007558494
30	0x3b76289d	0.0037560828
31	0xbc27889f	-0.010225444
32	0x3ae320aa	0.001732846
33	0x3d28528c	0.041094348
34	0x3bf89d41	0.0075871055
35	0x3cbf9b29	0.023389416
36	0x3ca37ba6	0.019956421
37	0x3cf33636	0.029688936
38	0x3dbfd9b0	0.093676925
39	0x3c31ff20	0.010864049
40	0x3c24be05	0.01005507
41	0xbb311b37	-0.0027024278
42	0x3ac6cf5d	0.0015168
43	0x3c9eeb16	0.019399207
44	0x3c069197	0.008213422
45	0x3d00f90e	0.031487517
46	0x3c6704d5	0.014100273
47	0x3bcdb377	0.0062774974
48	0x3c02ba45	0.00797898
49	0xbc61a2b2	-0.0137717
50	0xbc7b866a	-0.015351871
51	0xbce5e659	-0.02806394
52	0xbc277c07	-0.0102224415
53	0xbc46fa99	-0.012144708
54	0xbc9ec3d6	-0.019380491
55	0xbc640bdf	-0.013918846
56	0xbba3910e	-0.004991657
57	0xbc1d124d	-0.009586883
58	0x3c3f7665	0.011685942
59	0xbc106a02	-0.008814337
60	0x3cf5572f	0.029948799
61	0x3ce49880	0.027904749
62	0xbc18a628	-0.0093169585
63	0xbc35ab0e	-0.011088146
64	0xbc3de3e6	-0.01158998
65	0x3c371120	0.0111735165
66	0xbcd74c1d	-0.02628141
67	0x3c1eca01	0.009691716
68	0xbcc47bf8	-0.023984894
69	0xbcb05962	-0.021526996
70	0xbc569568	-0.013097145
71	0xbace7d5a	-0.001575391
72	0xbd1ad8e8	-0.037804514
73	0x3ab2e14a	0.0013647464
74	0x3caa39ec	0.020779572
75	0xbba9e1fb	-0.0051844097
76	0xbc92a1e0	-0.017899454
77	0x3c46167b	0.012090321
78	0x3cb43134	0.021996118
79	0x3b149301	0.002267063
80	0x3cba36be	0.022731181
81	0x3c2721e3	0.01020095
82	0x3c90cf3d	0.017676944
83	0x3bae4b68	0.0053190477
84	0xbc87b1e9	-0.016564326
85	0x3d04aa25	0.032388825
86	0x3c66e03e	0.014091549
87	0xbb6753c7	-0.0035297738
88	0x3c8caa8a	0.017171163
89	0xbcb38d0b	-0.02191784
90	0xbcd3268c	-0.025775217
91	0xbc56849c	-0.01309314
92	0x3bc7eb41	0.0061010425
93	0xbba6d5d4	-0.0050914083
94	0x3c003c64	0.007826898
95	0xbce347ad	-0.027744139
96	0x3c2ae4a3	0.010430488
97	0x3bd5cd0a	0.0065246867
98	0x3c9953d3	0.018716728
99	0xbb4d0784	-0.0031284997
100	0xbc3a55af	-0.011372968
101	0x3bdff0af	0.0068341116
102	0xbd02e5c7	-0.031957414
103	0xbca9284f	-0.020649103
104	0x3cad58ec	0.021160565
105	0xbc995d38	-0.018721208
106	0x3c98a769	0.018634515
107	0x3be0df76	0.006862576
108	0xbd293bab	-0.04131667
109	0xbb8f98d7	-0.0043822336
110	0xbb31d684	-0.0027135918
111	0x3cdb2247	0.026749743
112	0xbc2fe63d	-0.010736045
113	0xbce9927c	-0.028512232
114	0x3c24f78f	0.010068788
115	0xbc8610e5	-0.016365478
116	0x3d2c5e7b	0.04208229
117	0x3d151cae	0.036404304
118	0x3c99dab9	0.018781053
119	0xbc710087	-0.014709598
120	0x3ca2aadf	0.019856868
121	0x3d466150	0.04843265
122	0x3d0f0007	0.034912135
123	0x3cdbd633	0.026835537
124	0xbd50753a	-0.050893046
125	0xbc030832	-0.007997559
126	0xbd014f5f	-0.031569835
127	0x3d10a407	0.03531268
128	0x3b240826	0.002502927
129	0x3aad9b6f	0.0013245175
130	0xbc550e99	-0.013003969
131	0xbd355ad2	-0.044276066
132	0xbd1bcc7d	-0.038036812
133	0xbb65aedd	-0.0035046854
134	0xbd50a775	-0.05094095
135	0x3c73d07f	0.014881252
136	0xbc89d278	-0.016823992
137	0xbd0bb3d9	-0.034107063
138	0x3b7d7b7c	0.0038678339
139	0x3c384e2e	0.011249108
140	0xbc91ec27	-0.017812802
141	0xbd25a816	-0.040443502
142	0xbc6dc554	-0.014512379
143	0xbc9c3212	-0.019066844
144	0xbc0dea4a	-0.008661816
145	0x3c687b67	0.014189578
146	0x3cc58ee4	0.024115987
147	0x3aa5fb56	0.0012663405
148	0xbaad0b6d	-0.0013202258
149	0xbd3e54d5	-0.04646762
150	0xbd509735	-0.050925452
151	0xbd3a2f84	-0.04545547
152	0xbcdd4684	-0.027011164
153	0xbcdc5ec4	-0.026900657
154	0x3c8e9e1a	0.017409373
155	0xbcc35ae2	-0.023847047
156	0x3ce06b13	0.027394807
157	0xbccfe206	-0.025376331
158	0x3c3e5191	0.011616127
159	0x3b96ff7c	0.004608093
160	0xba53579d	-0.00080620666
161	0xbcbf15ab	-0.023325762
162	0x3ba19717	0.0049313414
163	0x3cfed089	0.031105297
164	0x3d1bca86	0.03803494
165	0x3c4fd875	0.012685885
166	0x3cb9dd6d	0.022688592
167	0xbc7e8a8c	-0.015535962
168	0xbbf6350f	-0.0075136493
169	0xbcc57a0c	-0.024106048
170	0xbc9acf90	-0.018897802
171	0x3d1de780	0.038550854
172	0x3d098875	0.0335774
173	0x3d3d6abb	0.046244364
174	0xbd467234	-0.048448756
175	0xbcb55bcf	-0.022138504
176	0xbbc4c152	-0.006004491
177	0x3d711bb2	0.058864303
178	0x3cbefde2	0.02331442
179	0xbd55baa5	-0.05217995
180	0xbcbe2c4f	-0.023214487
181	0xbcc9fa42	-0.024655465
182	0xbc090c65	-0.0083647715
183	0x3ca83fa8	0.020538166
184	0xbc9e21e1	-0.019303264
185	0xbd779ce2	-0.06045235
186	0xbd028731	-0.03186721
187	0x3b209a21	0.002450593
188	0xbc8decc9	-0.017324822
189	0xbc3e5f76	-0.011619439
190	0xbcdef6e5	-0.027217338
191	0xbbc2329b	-0.005926443
192	0xbc3c9f2d	-0.01151256
193	0x3c6cac6f	0.014445408
194	0x3d27c47d	0.04095887
195	0x3c25da63	0.010122868
196	0xbcbee3c9	-0.023301976
197	0x3b83ef41	0.004026324
198	0x3a97ae8e	0.0011572407
199	0x3bf233e7	0.007391441
200	0xbbf14bed	-0.0073637874
201	0xbcec4e4a	-0.028845925
202	0x3c530348	0.0128792
203	0x3b8c2df5	0.0042779394
204	0xbce4c408	-0.027925506
205	0xbd151bee	-0.03640359
206	0xbb4d10ae	-0.003129046
207	0x3cb9b33d	0.022668475
208	0x3c988a58	0.018620655
209	0x3ccbb9e4	0.024868913
210	0xbc90c604	-0.017672546
211	0xbd601a0f	-0.05471235
212	0xbd89ba9d	-0.06725047
213	0x3cc97773	0.02459309
214	0x3d3f7551	0.04674274
215	0x3d377aea	0.044794954
216	0x3d8fbc72	0.07018365
217	0xbb7006c7	-0.0036625133
218	0x3b78bc23	0.0037953935
219	0x3dab1edf	0.083554976
220	0x3dbedef6	0.0931987
221	0x3cf2976c	0.02961322
222	0x3bd23091	0.006414481
223	0x3c222f35	0.00989895
224	0xba3513c5	-0.0006907548
225	0x3da76c03	0.081748985
226	0x3cbf33bb	0.023340097
227	0x3c73a7e3	0.01487157
228	0xbcb972af	-0.022637693
229	0x3becbe0e	0.0072248047
230	0xbcaebf94	-0.021331586
231	0xbd05e3ad	-0.03268783
232	0x3c3952f9	0.011311286
233	0xbcddcf25	-0.027076313
234	0xbcc66724	-0.024219103
235	0xbdb36cd0	-0.08760989
236	0xbd8f119a	-0.06985779
237	0x3c35fab2	0.011107134
238	0xbc078f6c	-0.0082739405
239	0xbcea5158	-0.02860324
240	0xbca2d7c2	-0.019878272
241	0x3c3341ce	0.010940982
242	0xbbf3178b	-0.007418578
243	0xbadb4304	-0.0016728346
244	0xba81ee9d	-0.0009913031
245	0x3cc39dfb	0.023879042
246	0xbcb69ed5	-0.022292534
247	0xbd2236eb	-0.039603155
248	0xbd7a6ca6	-0.06113877
249	0xbd972f5b	-0.07382079
250	0xbce4d233	-0.027932262
251	0xbb766f7e	-0.0037603076
252	0x3ba36a3e	0.0049870303
253	0xbc03c8eb	-0.008043508
254	0x3c297937	0.010343841
255	0xbce1857b	-0.027529469

fc1.bias f4 [64]
0	0xbb25ac0c	-0.002527955
1	0xbc42d5a5	-0.011891757
2	0xbcdff64d	-0.027339125
3	0xbb8d4505	-0.0043112063
4	0x3cb202c4	0.021729834
5	0xbcc0af6c	-0.023521148
6	0x3d311d6f	0.04324096
7	0x3d1cbf8d	0.038268615
8	0xbb3b41e9	-0.002857322
9	0x3cc78482	0.024355177
10	0x3bfab768	0.0076512583
11	0x3d0366b5	0.03208037
12	0x3cd28bdd	0.025701458
13	0xb9b06712	-0.0003364613
14	0x3b38efa1	0.0028219002
15	0x3c3e85ed	0.01162861
16	0xbb1600ba	-0.0022888617
17	0x3c14a50e	0.009072555
18	0xbc68dc34	-0.014212657
19	0x3bec7567	0.007216144
20	0x3c0899e2	0.00833747
21	0xbcbca881	-0.023029568
22	0xbc3cd2a4	-0.01152483
23	0x3a127691	0.0005587126
24	0x3ca382d8	0.019959852
25	0xbccda6b7	-0.02510391
26	0xbc1ed01b	-0.009693171
27	0x3b996060	0.0046806782
28	0x3d1ff2f1	0.039050046
29	0x3ce0a163	0.027420705
30	0x3cb31a11	0.021863015
31	0xbbca33ee	-0.0061707413
32	0x3b2fc118	0.0026817974
33	0x3b6facb5	0.0036571447
34	0xbb581561	-0.0032971727
35	0xbb2005d8	-0.0024417546
36	0x3ce47362	0.02788705
37	0x3ad3a84b	0.0016148178
38	0xbc3af548	-0.011411019
39	0x3ced1e5a	0.028945137
40	0x3c02f6c7	0.007993407
41	0x3cc2a085	0.023758182
42	0x3a99ff92	0.001174914
43	0xbc2016a6	-0.009771025
44	0x3b156e29	0.0022801256
45	0x3b844e27	0.004037637
46	0x3c4013b0	0.011723444
47	0xbce0db71	-0.027448388
48	0xbbeec590	-0.007286735
49	0x3c9a8991	0.018864425
50	0x3c0548f1	0.008135066
51	0x3cebda6b	0.028790673
52	0x3d058779	0.0325999
53	0xbbf7ef88	-0.007566396
54	0x3c720c52	0.014773445
55	0x3ca66eed	0.020316565
56	0x3c97c3f3	0.018526053
57	0xbc4756c6	-0.0121666845
58	0xbbe7cf25	-0.007074254
59	0x3c2a5346	0.0103958305
60	0xbc98d3ce	-0.018655684
61	0xbc99e703	-0.018786913
62	0x3c875eeb	0.016524753
63	0xbc6e35ac	-0.014539164

fc2.weight f4 [10, 64]
0	0xbe3e1a63	-0.18564753
1	0xbc8e50ab	-0.01737245
2	0x3db2e308	0.08734709
3	0xbe8f22b1	-0.27956155
4	0xbd604960	-0.054757476
5	0xbd546ea5	-0.05186333
6	0xbe843c3f	-0.25827214
7	0x3dca2e19	0.09872074
8	0x3ddce42d	0.107857086
9	0x3c3ccfff	0.0115241995
10	0xbec5149e	-0.38492292
11	0x3e5fbce5	0.21849401
12	0x3e2349f3	0.15946178
13	0xbe6df08f	-0.23236297
14	0xbdeb7daa	-0.11498578
15	0xbd7f34dc	-0.06230627
16	0xbe7ac743	-0.24490075
17	0x3d935a3a	0.07194944
18	0x3e1e1dd2	0.15441063
19	0xbdfe787b	-0.124253236
20	0xbe6b28a0	-0.22964716
21	0xbda083e7	-0.078376584
22	0x3dd77b17	0.105215244
23	0x3e2897ca	0.16464153
24	0x3e2aeeb6	0.16692623
25	0x3dc4c0e7	0.09607106
26	0x3ea5edfd	0.32408133
27	0x3e9819e3	0.2970725
28	0x3d03702b	0.032089394
29	0x3d9e7aff	0.077383034
30	0xbd1e6f1c	-0.03868018
31	0xbd8c9ee1	-0.06866241
32	0x3e4b66a2	0.1986337
33	0xbe0a97b4	-0.13534433
34	0xbca4caaa	-0.020116169
35	0x3d312ca5	0.043255467
36	0x3e5cbe03	0.21556859
37	0x3e48eda7	0.19621907
38	0x3e7d3c7c	0.24730104
39	0xbe4be733	-0.19912414
40	0x3e2f7af0	0.1713674
41	0xbe7a9e47	-0.2447444
42	0xbcdb987d	-0.02680611
43	0xbc8ce04d	-0.017196799
44	0xbaea2b5b	-0.0017865704
45	0x3dd45b16	0.10368936
46	0xbe4e6e60	-0.20159292
47	0xbe4aeb09	-0.19816221
48	0xbe2fd346	-0.17170438
49	0x3e6204ce	0.22072145
50	0xbe75b0bf	-0.23993205
51	0x3ddea08c	0.10870466
52	0xbeaf4ad6	-0.34236783
53	0x3c322dbc	0.010875162
54	0xbe419515	-0.18904527
55	0xbe589efd	-0.21154399
56	0x3e5f61ab	0.21814601
57	0x3e7f40ab	0.24927013
58	0x3e1ae353	0.1512578
59	0x3be260c6	0.006908509
60	0xbd855138	-0.06509632
61	0xbe93f103	-0.28894815
62	0xbe819342	-0.2530766
63	0x3e0fe082	0.14050487
64	0xbe46b098	-0.19403303
65	0xbe056692	-0.13027409
66	0xbd0d5b9f	-0.034511205
67	0x3db5b32b	0.08872064
68	0xbdf154a5	-0.11783723
69	0xbcd569ef	-0.02605149
70	0x3e534ee4	0.20635563
71	0x3d750ada	0.059824802
72	0xbecf5fc2	-0.40502745
73	0x3e4b8e75	0.19878562
74	0x3ca775a7	0.020441843
75	0x3de2733e	0.11057137
76	0xbe5e7b69	-0.21726765
77	0x3e83981d	0.2570199
78	0x3e30316a	0.1720635
79	0xbd2461cf	-0.04013234
80	0xbe660d46	-0.22466001
81	0xbe6b3490	-0.2296927
82	0x3d43c3c3	0.047794115
83	0xbd0eb950	-0.034844697
84	0x3e898a49	0.26863316
85	0xbcbceddc	-0.023062639
86	0xbd8dd14e	-0.06924687
87	0x3e75582c	0.23959416
88	0xbe823475	-0.25430647
89	0x3db03a1a	0.08604832
90	0x3e09a655	0.13442357
91	0xbe62daa8	-0.22153723
92	0x3e816757	0.25274155
93	0xbe34c835	-0.17654498
94	0x3e8d2363	0.2756606
95	0xbe05463a	-0.1301507
96	0xbc8fd1c9	-0.017556088
97	0x3e6eb94e	0.23312876
98	0x3e607590	0.21919847
99	0xbeb2cb92	-0.34920937
100	0x3d3a47a1	0.045478467
101	0xbdb1dc71	-0.08684624
102	0x3e099bd8	0.13438356
103	0xbd756e39	-0.05991957
104	0x3e1abcc3	0.1511107
105	0x3e87df30	0.26537466
106	0xbd00c24c	-0.031435296
107	0xbdbf4d17	-0.093408756
108	0xbd6f9642	-0.058492906
109	0xbdd762e0	-0.10516906
110	0xbe49fa2f	-0.19724344
111	0xbe120fc2	-0.14263824
112	0x3e96d932	0.29462582
113	0xbe2467a0	-0.16055155
114	0xba8b420c	-0.0010624542
115	0xbe994ad7	-0.2993991
116	0x3e4213d5	0.18952878
117	0x3e3976c7	0.18111716
118	0xbddf0da8	-0.108912766
119	0x3e2992a4	0.16559845
120	0xbe0446ba	-0.12917605
121	0xbe4ad02b	-0.19805972
122	0x3b6226b7	0.003450794
123	0x3eaf9254	0.34291327
124	0x3e194076	0.14965996
125	0x3e0b8713	0.13625745
126	0xbe9b3f90	-0.30321932
127	0xbe33dab7	-0.17563902
128	0xbdb2a077	-0.087220125
129	0xbd999c61	-0.0750053
130	0xbce0c631	-0.027438255
131	0x3dee457f	0.11634349
132	0x3e863406	0.26211566
133	0x3c921776	0.017833453
134	0xbe7eb3a4	-0.24873215
135	0x3bccdaae	0.0062516546
136	0x3ddcbdb0	0.107783675
137	0xbd944fb6	-0.07241766
138	0x3e0909f2	0.133827
139	0xbe063e18	-0.13109624
140	0x3dee5e57	0.11639088
141	0x3c651288	0.013981469
142	0x3e85f186	0.2616083
143	0xbc440c20	-0.011965781
144	0xbe2f13bd	-0.17097373
145	0x3e4a42cc	0.19752043
146	0xbe2b1051	-0.16705443
147	0x3c5b17df	0.0133723905
148	0x3e90c17d	0.2827262
149	0x3dd27210	0.10275662
150	0x3e06015a	0.13086453
151	0x3df9a4ec	0.121896595
152	0x3e3167de	0.17324778
153	0xbe8c519e	-0.2740602
154	0x3e96cbef	0.29452464
155	0x3db36653	0.08759751
156	0xbded9537	-0.11600726
157	0xbe548258	-0.20752847
158	0xbe90aa7d	-0.28255072
159	0x3e3b5c1d	0.18296857
160	0x3e6ab8ee	0.22922108
161	0x3e84ea83	0.25960168
162	0x3e396f7d	0.18108936
163	0xbdd56d0e	-0.10421191
164	0xbe58ed83	-0.21184354
165	0xbea19081	-0.3155556
166	0x3e21c8ad	0.15799208
167	0xbe824dc2	-0.2544995
168	0x3e2880ad	0.16455336
169	0xbc029290	-0.007969514
170	0x3daf19ce	0.08549844
171	0xbdf1464a	-0.11780985
172	0xbdb55a15	-0.088550724
173	0xbe1f65b9	-0.15566148
174	0xbe0c6a4e	-0.13712427
175	0x3d878f86	0.06619172
176	0x3e968ada	0.2940281
177	0x3dbf5f58	0.09344357
178	0xbe974686	-0.29545993
179	0xbd551b34	-0.052027896
180	0xbc47d1e4	-0.012196038
181	0x3e4723c3	0.19447236
182	0xbe9a7bcf	-0.30172583
183	0xbe91a6d9	-0.28447607
184	0x3e0f1678	0.13973415
185	0xbe32bdda	-0.17455235
186	0xbe245e33	-0.16051559
187	0xbe04e707	-0.12978755
188	0x3dae1e26	0.08501844
189	0x3e5d4f03	0.21612172
190	0x3e29bbba	0.16575518
191	0xbdf087ba	-0.11744638
192	0xbdb50a29	-0.088398285
193	0xbbd00793	-0.006348559
194	0xbd718964	-0.058968917
195	0x3e000c08	0.1250459
196	0xbe137e7e	-0.14403722
197	0xbd3d0c7b	-0.04615448
198	0x3e300cee	0.17192432
199	0xbe03e888	-0.12881672
200	0xbb91cb44	-0.00444928
201	0x3e8a9050	0.27063227
202	0x3e44417c	0.19165605
203	0xbe21faf1	-0.15818383
204	0xbe60b193	-0.21942739
205	0x3e50e768	0.20400774
206	0x3d48d1e7	0.049028303
207	0x3da10394	0.078620106
208	0x3e66c26a	0.225351
209	0xbde6c61b	-0.11268254
210	0xbc8eec34	-0.017446615
211	0x3da830a0	0.082123995
212	0xbdb9a332	-0.0906433
213	0xbe2f9c56	-0.17149481
214	0x3e280cc2	0.16411117
215	0xbe296d39	-0.16545571
216	0xbe1a08fa	-0.15042487
217	0x3db7c7cb	0.08973654
218	0xbe706819	-0.2347721
219	0x3dd480c3	0.10376122
220	0xbdf06bd0	-0.117393136
221	0x3e3a4426	0.18190059
222	0xbe0c4594	-0.13698417
223	0x3e509ee5	0.20373113
224	0x3e58a575	0.21156867
225	0x3e5f9225	0.21833093
226	0xbe7bfeee	-0.24608967
227	0x3e165a6b	0.14682929
228	0xbe81b4df	-0.25333306
229	0xbe81d448	-0.2535727
230	0xbe3ae21c	-0.18250316
231	0xbe0a3b47	-0.13499175
232	0x3e12dced	0.14342089
233	0xbe1d105a	-0.15338269
234	0xbe1e749e	-0.15474173
235	0x3d1b93a9	0.037982617
236	0xbdd28149	-0.102785654
237	0x3db3dcda	0.087823585
238	0xbe4c6555	-0.1996053
239	0x3e56335b	0.20918028
240	0x3c5ae73b	0.013360794
241	0x3920e0a0	0.00015342468
242	0xbe38d771	-0.18050934
243	0x3e2ff1dc	0.17182106
244	0x3e5908f8	0.21194828
245	0x3e3d3ac1	0.18479444
246	0x3e88f73e	0.2675113
247	0xbebbf8bf	-0.36713216
248	0xbe907842	-0.2821675
249	0x3dccaee6	0.09994297
250	0x3e040c2f	0.12895273
251	0x3ceb207b	0.028702011
252	0xbe238e22	-0.15972188
253	0x3e579f79	0.21056928
254	0x3e04f914	0.12985641
255	0x3e89fd97	0.26951286

fc2.bias f4 [10]
0	0xbd12ec42	-0.035869844
1	0x3e394e16	0.18096194
2	0x3cfbdc51	0.030744703
3	0xbd38acd5	-0.0450867
4	0xbca1abf3	-0.019735312
5	0x3c9fcde7	0.019507362
6	0x3b30981b	0.002694613
7	0xbd34a1b1	-0.044099513
8	0x3dd64039	0.10461468
9	0xbce03257	-0.027367754
